…
 l2              | 0.0001              
 lr              | 0.001               
 num_horizon     | 64                  
 num_neg         | 1                   
 num_vertical    | 32                  
 num_workers     | 5                   
 optimizer       | Adam                
 random_seed     | 0                   
 test_all        | 0                   
 topk            | 5,10,20,50          
========================================
INFO:root:GPU available: False
INFO:root:Load corpus from ../data/Grocery_and_Gourmet_Food\BaseReader.pkl
INFO:root:#params: 1719648
INFO:root:Caser(
  (u_embeddings): Embedding(14682, 64)
  (i_embeddings): Embedding(8714, 64, padding_idx=0)
  (conv_h): ModuleList(
    (0): Conv2d(1, 64, kernel_size=(1, 64), stride=(1, 1))
    (1): Conv2d(1, 64, kernel_size=(2, 64), stride=(1, 1))
    (2): Conv2d(1, 64, kernel_size=(3, 64), stride=(1, 1))
    (3): Conv2d(1, 64, kernel_size=(4, 64), stride=(1, 1))
    (4): Conv2d(1, 64, kernel_size=(5, 64), stride=(1, 1))
  )
  (conv_v): Conv2d(1, 32, kernel_size=(20, 1), stride=(1, 1))
  (fc): Linear(in_features=2368, out_features=64, bias=True)
  (out): Linear(in_features=128, out_features=64, bias=True)
)
INFO:root:Optimizer: Adam
INFO:root:Epoch 1     loss=0.4774 [85.2 s]    dev=(HR@5:0.3011,NDCG@5:0.1990) [697.9 s] *
INFO:root:Epoch 2     loss=0.4056 [79.5 s]    dev=(HR@5:0.3282,NDCG@5:0.2193) [16.3 s] *
INFO:root:Epoch 3     loss=0.3873 [84.6 s]    dev=(HR@5:0.3360,NDCG@5:0.2251) [16.6 s] *
INFO:root:Epoch 4     loss=0.3767 [358.8 s]    dev=(HR@5:0.3466,NDCG@5:0.2342) [68.6 s] *
…
