…
 l2              | 0.0001             
 lr              | 0.001              
 num_horizon     | 64                 
 num_neg         | 1                  
 num_vertical    | 32                 
 num_workers     | 5                  
 optimizer       | Adam               
 random_seed     | 0                  
 test_all        | 0                  
 topk            | 5,10,20,50         
=======================================
INFO:root:GPU available: False
INFO:root:Load corpus from ../data/Musical_Instruments\BaseReader.pkl
INFO:root:#params: 371488
INFO:root:Caser(
  (u_embeddings): Embedding(1430, 64)
  (i_embeddings): Embedding(901, 64, padding_idx=0)
  (conv_h): ModuleList(
    (0): Conv2d(1, 64, kernel_size=(1, 64), stride=(1, 1))
    (1): Conv2d(1, 64, kernel_size=(2, 64), stride=(1, 1))
    (2): Conv2d(1, 64, kernel_size=(3, 64), stride=(1, 1))
    (3): Conv2d(1, 64, kernel_size=(4, 64), stride=(1, 1))
    (4): Conv2d(1, 64, kernel_size=(5, 64), stride=(1, 1))
  )
  (conv_v): Conv2d(1, 32, kernel_size=(20, 1), stride=(1, 1))
  (fc): Linear(in_features=2368, out_features=64, bias=True)
  (out): Linear(in_features=128, out_features=64, bias=True)
)
INFO:root:Optimizer: Adam
INFO:root:Namespace(model_name='Caser')
INFO:root:--------------------------------------------- BEGIN: 2022-01-12 22:00:05 ---------------------------------------------
INFO:root:
=======================================
 Arguments       | Values              
=======================================
 L               | 5                  
…
