…
 topk            | 5,10,20,50
==============================
INFO:root:GPU available: False
INFO:root:Reading data from "../data/", dataset = "Automotive" 
INFO:root:Counting dataset statistics...
INFO:root:"# user": 2928, "# item": 1835, "# entry": 14945
INFO:root:Appending history info...
INFO:root:Constructing relation triplets...
INFO:root:Item-item relations:['r_complement', 'r_substitute']
INFO:root:Attribute-based relations:['i_category']
INFO:root:"# relation": 4, "# triplet": 75230
INFO:root:Save corpus to ../data/Automotive\DFTReader.pkl
INFO:root:#params: 335412
INFO:root:KDA(
  (user_embeddings): Embedding(2929, 64)
  (entity_embeddings): Embedding(1951, 64)
  (relation_embeddings): Embedding(4, 64)
  (relational_dynamic_aggregation): RelationalDynamicAggregation(
    (relation_embeddings): Embedding(4, 64)
    (freq_real): Embedding(4, 33)
    (freq_imag): Embedding(4, 33)
  )
  (attn_head): MultiHeadAttention(
    (q_linear): Linear(in_features=64, out_features=64, bias=False)
    (k_linear): Linear(in_features=64, out_features=64, bias=False)
    (v_linear): Linear(in_features=64, out_features=64, bias=False)
  )
  (W1): Linear(in_features=64, out_features=64, bias=True)
  (W2): Linear(in_features=64, out_features=64, bias=True)
  (dropout_layer): Dropout(p=0, inplace=False)
  (layer_norm): LayerNorm((64,), eps=1e-05, elementwise_affine=True)
  (item_bias): Embedding(1836, 1)
)
INFO:root:Optimizer: Adam
INFO:root:Epoch 1     loss=4.1377 [11.3 s]    dev=(HR@5:0.1829,NDCG@5:0.1181) [7.6 s] *
INFO:root:Epoch 2     loss=4.0543 [10.1 s]    dev=(HR@5:0.1768,NDCG@5:0.1252) [7.3 s] *
INFO:root:Epoch 3     loss=4.0111 [10.4 s]    dev=(HR@5:0.2012,NDCG@5:0.1326) [7.3 s] *
INFO:root:Epoch 4     loss=3.9462 [10.4 s]    dev=(HR@5:0.2256,NDCG@5:0.1515) [7.7 s] *
INFO:root:Epoch 5     loss=3.8624 [10.4 s]    dev=(HR@5:0.2500,NDCG@5:0.1772) [7.4 s] *
…
