…
==================================
INFO:root:GPU available: False
INFO:root:Reading data from "../data/", dataset = "Toys_and_Games" 
INFO:root:Counting dataset statistics...
INFO:root:"# user": 19412, "# item": 11924, "# entry": 130721
INFO:root:Appending history info...
INFO:root:Constructing relation triplets...
INFO:root:Item-item relations:['r_complement', 'r_substitute']
INFO:root:Attribute-based relations:['i_category']
INFO:root:"# relation": 4, "# triplet": 623023
INFO:root:Save corpus to ../data/Toys_and_Games\DFTReader.pkl
INFO:root:#params: 2049629
INFO:root:KDA(
  (user_embeddings): Embedding(19413, 64)
  (entity_embeddings): Embedding(12094, 64)
  (relation_embeddings): Embedding(4, 64)
  (relational_dynamic_aggregation): RelationalDynamicAggregation(
    (relation_embeddings): Embedding(4, 64)
    (freq_real): Embedding(4, 33)
    (freq_imag): Embedding(4, 33)
  )
  (attn_head): MultiHeadAttention(
    (q_linear): Linear(in_features=64, out_features=64, bias=False)
    (k_linear): Linear(in_features=64, out_features=64, bias=False)
    (v_linear): Linear(in_features=64, out_features=64, bias=False)
  )
  (W1): Linear(in_features=64, out_features=64, bias=True)
  (W2): Linear(in_features=64, out_features=64, bias=True)
  (dropout_layer): Dropout(p=0, inplace=False)
  (layer_norm): LayerNorm((64,), eps=1e-05, elementwise_affine=True)
  (item_bias): Embedding(11925, 1)
)
INFO:root:Optimizer: Adam
INFO:root:Epoch 1     loss=3.8677 [61.6 s]    dev=(HR@5:0.3296,NDCG@5:0.2073) [14.0 s] *
INFO:root:Epoch 2     loss=3.5128 [60.5 s]    dev=(HR@5:0.4076,NDCG@5:0.2598) [14.2 s] *
INFO:root:Epoch 3     loss=2.4863 [52.2 s]    dev=(HR@5:0.4887,NDCG@5:0.3246) [13.7 s] *
INFO:root:Epoch 4     loss=1.4733 [59.0 s]    dev=(HR@5:0.5133,NDCG@5:0.3606) [13.7 s] *
…
