…
=======================================
INFO:root:GPU available: False
INFO:root:Reading data from "../data/", dataset = "Musical_Instruments" 
INFO:root:Counting dataset statistics...
INFO:root:"# user": 1429, "# item": 900, "# entry": 10261
INFO:root:Appending history info...
INFO:root:Constructing relation triplets...
INFO:root:Item-item relations:['r_complement', 'r_substitute']
INFO:root:Attribute-based relations:['i_category']
INFO:root:"# relation": 4, "# triplet": 36347
INFO:root:Save corpus to ../data/Musical_Instruments\DFTReader.pkl
INFO:root:#params: 173645
INFO:root:KDA(
  (user_embeddings): Embedding(1430, 64)
  (entity_embeddings): Embedding(937, 64)
  (relation_embeddings): Embedding(4, 64)
  (relational_dynamic_aggregation): RelationalDynamicAggregation(
    (relation_embeddings): Embedding(4, 64)
    (freq_real): Embedding(4, 33)
    (freq_imag): Embedding(4, 33)
  )
  (attn_head): MultiHeadAttention(
    (q_linear): Linear(in_features=64, out_features=64, bias=False)
    (k_linear): Linear(in_features=64, out_features=64, bias=False)
    (v_linear): Linear(in_features=64, out_features=64, bias=False)
  )
  (W1): Linear(in_features=64, out_features=64, bias=True)
  (W2): Linear(in_features=64, out_features=64, bias=True)
  (dropout_layer): Dropout(p=0, inplace=False)
  (layer_norm): LayerNorm((64,), eps=1e-05, elementwise_affine=True)
  (item_bias): Embedding(901, 1)
)
INFO:root:Optimizer: Adam
INFO:root:Epoch 1     loss=3.1080 [12.1 s]    dev=(HR@5:0.2120,NDCG@5:0.1431) [13.1 s] *
INFO:root:Epoch 2     loss=3.0330 [11.2 s]    dev=(HR@5:0.2078,NDCG@5:0.1398) [12.4 s]
INFO:root:Epoch 3     loss=3.0078 [10.6 s]    dev=(HR@5:0.2078,NDCG@5:0.1428) [12.1 s]
INFO:root:Epoch 4     loss=2.9901 [10.6 s]    dev=(HR@5:0.2183,NDCG@5:0.1490) [11.6 s] *
INFO:root:Epoch 5     loss=2.9630 [10.8 s]    dev=(HR@5:0.2393,NDCG@5:0.1628) [11.8 s] *
…
